ZZP_data_scrape_GPT_bloked/AE_model.pt (torch, 887913 bytes, 20 tensors)

encoder.0.weight f4 [128, 768]
000000 11 6b d5 3c 07 05 0a 3d 3b 0a a3 3c e2 42 49 3d
       0.02605203 0.0336962 0.01990234 0.04913605
000010 42 75 e5 ba f3 0c 5b bd bc 70 4c bc 15 8b bf 3c
       -0.0017506259 -0.053479146 -0.01247805 0.02338175
000020 d1 b5 c5 3c 0d 2e 0f bd 89 23 a9 3c 69 31 0e 3a
       0.024134548 -0.034956027 0.020646827 0.0005424233
000030 a9 69 08 3d 4f ae 63 3c 36 39 a0 3c c0 28 a0 ba
       0.03330389 0.013896539 0.01955853 -0.0012219176
000040 89 9e 0a 3d a5 f7 bb 3b 3c e3 ae 39 98 31 70 3c
       0.033842597 0.0057363086 0.0003335717 0.014660262
000050 a8 ac 29 3d 80 c8 12 bc 26 c0 23 3c ed 8f f1 3c
       0.041424423 -0.008958936 0.009994542 0.029487574
000060 b6 c8 92 bc b9 29 87 3a 52 97 f4 bc 2a ff bc bb
       -0.017917972 0.0010312117 -0.029857311 -0.0057677226
000070 6d 79 a3 bb 8a c0 97 bd c7 a6 2d 3d cd 91 92 bc
       -0.0049888403 -0.07409771 0.04239538 -0.017891789
000080 85 92 b8 3c 7b 09 b8 ba 10 c5 00 bb 46 d9 d9 3c
       0.022530803 -0.0014040911 -0.0019648708 0.026592862
000090 ac dc a1 ba 2b 9d 89 3c cb 3a 5f 3c b7 d1 f0 bb
       -0.001234909 0.016798576 0.013624857 -0.0073492187
0000a0 eb 2a a6 3b 7f 27 04 bd b0 23 aa 3c c0 d7 f4 3c
       0.005071034 -0.03226423 0.02076897 0.029888034
0000b0 ff 01 f9 3b cb 33 ba bc 88 0a 94 3c ee 2e 4f bb
       0.007599115 -0.022729775 0.018071428 -0.0031613666
0000c0 41 ce c1 3c d6 95 28 bd 6e 3b 4c bd 38 ab 17 3b
       0.02365792 -0.04115852 -0.049861364 0.0023142826
0000d0 66 01 05 bd f1 d9 9a 3c 0b bf 6f 3c 5f 50 a0 3c
       -0.032472037 0.01890275 0.014632951 0.019569574
0000e0 6d 11 23 3d 88 ae 1b bc 5d 8f ab 3c f8 03 08 bd
       0.03981154 -0.009502061 0.020942384 -0.03320691
0000f0 98 48 7b 3c ea a1 32 bd cc 0d aa 3b 79 03 78 bc
       0.015337132 -0.043611445 0.005189633 -0.015137547
000100 cf f4 0a bb d4 50 7a bc 82 48 ee 3c bd ba 8d bc
       -0.0021203046 -0.01527806 0.029087309 -0.017300958
000110 b0 ab f7 bc 71 66 e8 bc 62 40 fb 3c 74 11 8c 3b
       -0.030233234 -0.02836916 0.030670349 0.0042745415
000120 85 f0 01 3d fb 62 4e bd 6a 8e 2a bd 7a 72 34 bd
       0.031723518 -0.050387364 -0.041639723 -0.044054486
000130 6a b2 e9 bc 5d 3c c4 3c 78 cc 4c 3d 7f c3 fd 3c
       -0.028527457 0.023954565 0.049999684 0.030977009
000140 3d 26 96 3c 54 f0 b6 bc f0 e4 ad 3c 29 ee fe bb
       0.01832878 -0.022331394 0.02122733 -0.0077798557
000150 99 a4 08 3d a7 76 d2 bb c3 5f 66 3d 7d e7 3a bc
       0.033360098 -0.006422836 0.05624367 -0.01140773
000160 16 75 d1 bc a9 80 8d 3c 77 21 31 3c ec 1c 53 bc
       -0.025568526 0.017273264 0.010811201 -0.0128853135
000170 0c 53 03 3d ce 09 12 bc 1e c8 8f 3b d8 e4 ed bc
       0.03206162 -0.00891347 0.0043878695 -0.029039785
000180 90 2a 1e 3d 58 c2 c0 bc c0 63 9f bc d2 fc f4 bc
       0.03861481 -0.02353017 -0.019456744 -0.02990571
000190 46 c3 73 bc 96 98 26 b9 ae 9d 02 3c 83 3b 3f bc
       -0.0148781 -0.00015887836 0.007972164 -0.011671904
0001a0 b1 76 d6 3a fc 6b 6e bd 69 91 ef bc e7 fb 31 bc
       0.0016362277 -0.05820845 -0.029244142 -0.010863281
0001b0 7c b4 15 bd 71 93 79 bc a3 52 5b 3d e6 e3 31 b8
       -0.036549076 -0.015232907 0.053545605 -4.2412335e-05
0001c0 62 73 f2 3b a1 98 25 bd a9 5d 35 bd 1f 9b 0a bd
       0.0073990086 -0.04042876 -0.044278774 -0.03383934
0001d0 b4 6a 02 3c 0a a2 11 bc d5 fb 10 bd c0 ee 93 bc
       0.00796001 -0.008888731 -0.035396416 -0.01805818
0001e0 61 2d de 38 58 30 86 bc 82 77 86 3c 3a 3c 8c bc
       0.000105942374 -0.016380474 0.016414408 -0.017118562
0001f0 e6 8e b1 bc 2c a9 d8 bc 21 6f a4 3b fd 22 ac bc
       -0.021674585 -0.026447855 0.0050181304 -0.021012777
000200 9b f4 12 3c 68 a9 b0 bc 77 51 15 3d 46 3b fe 3c
       0.008969451 -0.021565154 0.036454644 0.031034123
000210 91 08 47 bd 13 7c 9d 3c 3c 0c 92 3b 76 87 e0 bc
       -0.048592154 0.019224202 0.004457025 -0.027408343
000220 64 1b 19 bd 58 1f 34 bd e3 0e 80 3c 73 61 90 bc
       -0.037379637 -0.043975204 0.015632099 -0.017624592
000230 d4 5e 00 3c 34 33 07 bd 19 49 18 3d 6d df bb bc
       0.007835109 -0.033007815 0.037179086 -0.022933686
000240 3f a3 c0 bb ca 50 b7 3c 6e fd bf 3c 49 58 ec 3c
       -0.0058788355 0.02237739 0.023436274 0.028850691
000250 53 72 db 3c 15 50 e5 bc e9 57 82 3c 95 e7 39 bc
       0.026787912 -0.027992288 0.01591106 -0.011346717
000260 11 f4 ea bc cc bd 29 bd b2 2e 9d 3c 1c fc 08 bd
       -0.028680833 -0.04144077 0.019187305 -0.033443555
000270 53 ea 02 3c 08 5b bb 3b b9 63 0f bc ab 81 00 bc
       0.007990438 0.005717639 -0.008751803 -0.007843415
000280 37 32 2b 3d 8d b5 e5 3a c5 aa 58 bb b2 f9 aa bc
       0.041795935 0.001752542 -0.003306077 -0.020871017
000290 63 94 42 3c 59 8e 62 bc 55 d1 1d bd 7b 50 10 3d
       0.011876198 -0.013827884 -0.038529713 0.035233002
0002a0 82 e5 76 3b 76 0d 9a bc b9 fd fd bc 64 cb 26 bc
       0.0037673418 -0.018805247 -0.031004773 -0.010180328
0002b0 e7 9c be 3c e0 d6 e6 bc 0d 9a c3 bb ff 71 d4 bc
       0.023268176 -0.028178632 -0.005969292 -0.025933264
0002c0 e7 fa 82 bc a1 59 ab 3b c0 77 01 3d df 70 c8 bc
       -0.01598878 0.0052291905 0.031608343 -0.024467884
0002d0 1d ca c5 bb c5 48 e5 3c 61 63 04 3c be a0 2c bc
       -0.0060360567 0.0279888 0.008080334 -0.010536371
0002e0 3d 60 b3 3c 61 35 6c 3c f4 ad a5 3c 76 5e 0e bc
       0.021896476 0.014417023 0.020224549 -0.008689513
0002f0 d5 e1 eb 3c ff 69 67 bb 49 b1 c2 bb 83 77 7c bc
       0.028794209 -0.0035310981 -0.005941544 -0.015409353
000300 7f c1 a0 3c f6 50 29 3d ed d3 c9 3b 4e fd 4f bc
       0.019623516 0.041336976 0.0061592967 -0.01269467
000310 64 b3 1a 3b 88 ef 1c 3c cc 41 a6 3b 2e d3 c5 3b
       0.002360546 0.009578593 0.0050737616 0.0060371375
000320 6c 48 01 bd 8c 37 ca bb c6 10 1b 3d 03 aa 76 3c
       -0.031563208 -0.0061711725 0.037857793 0.015055182
000330 2e e3 8d bc 00 bb f1 bc 26 85 c3 3b 3f e3 21 bd
       -0.017320242 -0.029508114 0.0059668003 -0.03952336
000340 f8 06 d3 bc 9d ff 54 3c 7b 94 8e 3b 40 db b3 3c
       -0.025760159 0.013000396 0.0043511963 0.021955132
000350 85 21 ba ba a9 ee 23 bd 20 45 6c bc a9 cf 49 3d
       -0.0014200663 -0.040022526 -0.014420778 0.049270306
000360 92 09 a4 b9 34 93 11 bd ba 27 8a 3c 93 1d a1 b9
       -0.00031287648 -0.035540774 0.016864646 -0.00030730347
000370 8d 08 a1 bc a5 d2 1d 3d 8e 79 b6 bc ca b2 8e ba
       -0.019657398 0.038530964 -0.022274759 -0.0010887024
000380 57 fd 35 bd 99 d4 d3 3c b4 2a f9 3c 04 10 31 3b
       -0.044431057 0.02585821 0.03041587 0.0027017603
000390 d9 40 77 bc 30 6f e4 bc 97 6d 4a bd 4d 88 ec 3c
       -0.0150911445 -0.02788505 -0.04942092 0.028873587
0003a0 e7 72 e4 3c b6 cd cd 3c 2d 88 ec 3c 20 45 2e 3b
       0.027886821 0.025122505 0.028873527 0.0026591495
0003b0 2e bd 8a bb 12 b7 0e bd bf f6 68 bc 64 33 15 bd
       -0.0042339778 -0.03484256 -0.014218985 -0.036425963
0003c0 41 40 1b 3c 4c d4 20 bc 94 bc 22 3b 40 b8 b3 bc
       0.009475769 -0.0098162405 0.002483164 -0.021938443
0003d0 4b 9e cb bc 1a cc 12 bd 03 3c 3c bd 7b d3 13 3d
       -0.024855753 -0.035839178 -0.04595567 0.036090355
0003e0 0b b0 6f 3c b8 45 9c 3b b5 26 ad bc d5 8c 1a bd
       0.014629374 0.0047690533 -0.021136621 -0.037731964
0003f0 6d 4f 64 bc af 37 c6 bc 09 88 7d 3c c1 2c 25 bd
       -0.013934952 -0.024196474 0.015474328 -0.040325884

encoder.0.bias f4 [128]
000000 87 b4 fa 3c 94 1a b8 bb 65 cc e6 bb 62 44 08 bc
       0.03060366 -0.0056184027 -0.0070434087 -0.008317085
000010 01 5a 28 bb 9c ea 19 3d 69 13 0a 3d 12 c1 cf bc
       -0.0025688412 0.037577257 0.033709917 -0.025360618
000020 90 a3 02 bd c6 53 23 bc 99 f4 86 bc cc 30 49 bc
       -0.031894267 -0.009968704 -0.016474055 -0.0122797005
000030 17 54 9f 3c c2 28 0e bd 78 6c 13 3d e4 45 09 bc
       0.019449277 -0.03470684 0.035992116 -0.00837848
000040 a6 ba 26 3d 27 ce 1e 3d fa 77 00 bc e9 66 2a 3d
       0.040705346 0.03877082 -0.007841105 0.04160205
000050 8c 63 04 3c eb 4a 0d 3d f5 f1 26 3d 3d a5 11 bc
       0.008080374 0.034495275 0.040758092 -0.0088894935
000060 98 52 13 3d 61 ad e1 bc 17 0e 07 3d 1e 58 d6 3c
       0.03596744 -0.027548494 0.03297242 0.026165064
000070 29 8c 10 3d da de 81 3c 63 d3 16 bc a6 ec f0 3b
       0.035289917 0.015853334 -0.009205672 0.0073524294
000080 13 89 b0 bc 60 6a f2 3b 7b 9a f4 bc 68 f0 8f 3c
       -0.021549737 0.007397935 -0.029858818 0.01757069
000090 37 fc 8a 3b ea 68 00 3d 5e 8d d2 bc 06 8c d3 bc
       0.004241492 0.031350054 -0.025702175 -0.025823604
0000a0 06 4f da 3c ee 6a 04 bd fd c0 fd 3c 52 3e 06 3d
       0.02664901 -0.03232854 0.030975813 0.032774277
0000b0 6c 71 71 bc cd 82 10 3c 26 55 ea 3c 5a 58 c3 3c
       -0.014736515 0.008820248 0.028605055 0.02384584
0000c0 49 18 9d bb ec 7e be 3c b3 05 10 3d d3 82 26 bc
       -0.004794155 0.02325388 0.035161685 -0.010163027
0000d0 10 2b e5 3b 79 4b e1 3c 5e 7f 23 bc 48 0c 0c 3c
       0.006993659 0.027501808 -0.009979097 0.00854785
0000e0 a5 da 35 3c 50 e7 8d bb 70 15 32 bc b8 b0 d5 3b
       0.011099492 -0.004330553 -0.010869369 0.0065213107
0000f0 b6 9f da bc e5 be a3 bc 39 f8 32 3c c5 e0 bd bc
       -0.026687484 -0.019988487 0.010923439 -0.023178468
000100 10 c0 c2 3c ec 03 94 bc f9 ba ca bc f7 0e d0 bc
       0.023773223 -0.018068276 -0.024747359 -0.02539776
000110 c0 1d 80 bb 0e c7 fe 3c e7 c4 b3 bc ff 25 2f 3d
       -0.0039097965 0.031100776 -0.021944476 0.042760845
000120 e0 23 1f 3c f1 60 b4 3c 2c 1d 28 3c bc ed d5 bc
       0.009713143 0.022018882 0.010260861 -0.026114337
000130 65 26 26 3d 4b fa 1e 3c bc f3 6e bc e9 96 84 3c
       0.04056396 0.009703229 -0.014584478 0.01618524
000140 65 bf 0a 3d 3e f6 9f bc 5f 24 e0 bc 9f 4d ab 3b
       0.033873934 -0.019526597 -0.027361093 0.005227759
000150 fd 50 9d 3c 88 25 27 3c de bf 03 bd 70 6a c0 bc
       0.019203657 0.010201819 -0.0321654 -0.023488253
000160 02 9a 65 bc df 0e 3a bc 27 43 cf 3c 66 89 12 bc
       -0.014013769 -0.011356085 0.025300575 -0.008943891
000170 79 22 b1 bb 54 59 9c 3b b6 e7 aa 3c 81 b9 39 3c
       -0.005405721 0.004771391 0.020862442 0.0113357315
000180 e0 7a 40 3c 17 74 ea bc e7 1e df bc 68 9d e8 3b
       0.011748046 -0.02861981 -0.027236415 0.0070988424
000190 16 aa 21 3d 5a 63 43 bc 24 03 ac bc 80 54 a5 b9
       0.039468847 -0.011925543 -0.020997591 -0.0003153421
0001a0 d4 88 3b bc 0e a5 de bc 06 d5 b9 3c 0d ca de 3c
       -0.011446197 -0.027178314 0.022684585 0.027195955
0001b0 40 50 8f bc 3f 30 e9 3b 16 3c 12 3d fc 00 4d 3c
       -0.01749432 0.007116347 0.035701834 0.012512442
0001c0 e5 b0 10 bd 17 47 0b bb 6d 66 17 3b dd 1e 80 bc
       -0.03532495 -0.002125209 0.0023101822 -0.015639717
0001d0 a8 1e cb bc 0f 0d dc bb 82 10 63 bc f0 e9 82 3c
       -0.024794891 -0.006715424 -0.013858916 0.01598069
0001e0 fc bd 0d 3c 3a 5a e2 bc 74 06 f1 3c 42 ad 82 bc
       0.008651253 -0.027630914 0.029422022 -0.015951756
0001f0 35 23 a4 bc b9 7f 88 3b e3 91 0c 3b 60 c5 3b 3b
       -0.02003632 0.0041656164 0.002144926 0.002865158

encoder.2.weight f4 [64, 128]
000000 aa 9c b1 3d 85 7c e5 3c e1 5b f2 bb 80 f8 93 ba
       0.086724594 0.028013477 -0.0073962067 -0.0011289269
000010 1f e7 24 3d 1c 9c 38 3d f5 13 8f 3c d7 a5 41 bd
       0.040259477 0.045070753 0.017465571 -0.047277298
000020 00 15 6b ba 6d 79 ba 3d 03 20 1d bd 3c 71 42 bd
       -0.0008967668 0.091051914 -0.038360607 -0.04747127
000030 b5 cc 9d 3d 10 ba 7e bd 53 7a 9d 3d 01 8e ae 3d
       0.077050604 -0.06218916 0.07689347 0.08523179
000040 2e 3d 97 3d 07 9e c1 3c 68 72 39 3d a6 c4 b8 3a
       0.07384716 0.023634924 0.045275122 0.0014096692
000050 2d 41 a7 3d c2 b8 a7 bd a5 b8 27 bd ab ab 0c 3d
       0.08166728 -0.08189537 -0.040947575 0.034343403
000060 76 d1 52 3d cc 38 dd 3c ba f7 3e 3d 9c 95 b3 bd
       0.05146929 0.027004622 0.04662297 -0.0876877
000070 38 35 99 3d 0c e6 29 bd 58 ca 96 3d 7f 7c 82 bd
       0.07480854 -0.041479155 0.07362813 -0.06371402
000080 e4 48 dc bc aa 2a 10 3d 5c e9 65 bd 55 70 9f 3d
       -0.026890226 0.035196938 -0.056130752 0.077850975
000090 d5 59 73 bd 6c 40 96 bd 7f 4a a3 bd 16 a2 9b 3d
       -0.059411842 -0.07336506 -0.079731934 0.07599275
0000a0 4d 4c 02 3d a0 85 3f bc 65 e0 41 bd 06 3d 6a 3d
       0.031811047 -0.0116895735 -0.04733314 0.057187103
0000b0 1b d0 4e 3d cf d3 3c bd e0 f4 9a 3d 6e 00 a6 bd
       0.050491434 -0.046100434 0.075662374 -0.08105551
0000c0 68 7c fb bc 05 0e b6 3d 3d 48 15 bd e5 a5 82 3d
       -0.03069897 0.08889393 -0.036445845 0.06379298
0000d0 e6 1a 74 3d 56 71 01 bd b8 c2 3b bd c0 dc 46 bd
       0.059595965 -0.031602226 -0.045839995 -0.048550367
0000e0 8b 34 60 3d f0 e7 9a bc 7e 2d 74 bc 28 d0 2b 3c
       0.05473761 -0.018909425 -0.014903424 0.01048664
0000f0 df 1a 11 3c 90 2e 7c bd 41 7d 78 3d 62 09 3c 3d
       0.008856504 -0.061567843 0.060666326 0.045907386
000100 95 15 2a bc 50 45 5d bc ed 39 72 bd 13 e7 25 bd
       -0.010381122 -0.013505295 -0.059137274 -0.040503573
000110 6e 42 af bc 3d dc 4a bc ce 87 8c 3d 1b 45 0b bd
       -0.02139398 -0.01238161 0.0686184 -0.03400145
000120 22 31 26 bd 76 7e 68 3c 00 5d a5 3c a5 19 a0 3d
       -0.0405742 0.014190307 0.020185947 0.07817391
000130 53 41 7c 3d de 76 7d bd 5e de 95 bd b2 52 3b 3b
       0.061585736 -0.06188094 -0.07317804 0.0028583226
000140 64 15 7b 3d da 5e 45 3d e0 99 9c 3b 64 8f 83 3d
       0.061299697 0.04818616 0.0047790855 0.06423834
000150 41 ab b5 3d 61 73 80 3d 93 ea a6 3c 65 cf 8e bd
       0.08870555 0.06272007 0.020375526 -0.06973151
000160 b0 2e d8 bb 12 4b c7 bc 2b 05 88 bd 74 61 a3 bd
       -0.0065973625 -0.024327789 -0.06641611 -0.07977572
000170 a3 e5 03 bd de 77 9e 3d 22 f9 f0 3a 1d c8 e7 3c
       -0.03220142 0.077377066 0.0018384794 0.028293664
000180 a2 f5 18 3d 88 6b af bd 38 c5 53 bc 1f 81 7f bd
       0.03734363 -0.08565432 -0.012925439 -0.062379
000190 b5 80 12 bd 7c 77 bc bb 8f 28 2d bd 34 c6 c4 3c
       -0.035767276 -0.0057515483 -0.042275008 0.024020292
0001a0 b8 f8 42 3d 8d 83 9a 3d eb 7c 13 bd 7c 17 4b bd
       0.047600478 0.075446226 -0.036007803 -0.049582943
0001b0 6f d8 68 3d 1c 44 40 bd 24 98 66 3d ed 67 99 3d
       0.056847032 -0.046939954 0.056297436 0.074905254
0001c0 ab f7 ae bd 3e 1c b3 3d 65 6d 52 bd c2 8b c0 3a
       -0.08543333 0.08745621 -0.051373858 0.0014690089
0001d0 01 70 8e 3d 58 a8 8a bd a8 b4 4f bc 5c 6a 81 3d
       0.06954957 -0.0677039 -0.012677349 0.063191146
0001e0 56 2c 04 3d 00 f8 fe b9 73 f1 89 bd ea 5a 0a 3d
       0.032268845 -0.0004863143 -0.06735506 0.03377811
0001f0 32 31 53 3c c4 92 2a 3c e1 13 a9 3d 5d 61 2a bd
       0.012890147 0.010410968 0.08255745 -0.04159676
000200 cd d1 26 bd cb 8a a6 3d 57 ca a3 3d 50 f8 ca bb
       -0.040727425 0.081319414 0.07997578 -0.006194152
000210 f9 e5 1e bd 8e 35 83 ba 00 06 61 b9 4e e2 27 bc
       -0.038793538 -0.0010010467 -0.00021459907 -0.010246826
000220 63 9c ad 3d 74 3b 3b bd f3 30 15 bd c0 c9 5c bc
       0.08477094 -0.045710996 -0.036423635 -0.013475835
000230 25 9c ac bd ab 94 ab bd bb f9 9d 3d 43 8c a0 bd
       -0.0842822 -0.083779655 0.07713648 -0.07839253
000240 00 3f 4f bd 37 4d 4f bd 22 01 da bc 1e 29 94 3d
       -0.05059719 -0.050610747 -0.026611868 0.07234405
000250 4a ce 21 bd f4 9c 9b bc 3e f5 9a 3c 29 81 85 3c
       -0.039503373 -0.01899574 0.018915769 0.01629694
000260 a3 8c 89 bd 7c a2 ec 3c 2d db f8 3c 00 57 22 bd
       -0.067162775 0.028886072 0.030377949 -0.03963375
000270 fd 3c a9 3d ef 72 96 bd a2 ac 59 bc 6d 70 b5 bd
       0.08263586 -0.073461406 -0.013285788 -0.08859334
000280 c0 a1 93 bc dc 25 62 bd 45 8b b1 bd 89 88 6a bd
       -0.018021464 -0.055211887 -0.08669142 -0.057259116
000290 04 cc 8b bd 56 33 1e 3d b2 69 f8 bc 25 5a 33 bd
       -0.06826022 0.038623177 -0.030323837 -0.04378714
0002a0 f2 f7 4e 3d c6 9c 27 3d d7 55 b4 bd 13 8b a0 bd
       0.050529428 0.040920995 -0.08805435 -0.07839026
0002b0 b0 85 4d bd 4c 07 86 3c c6 5f 92 bc ee bd 64 3d
       -0.050176322 0.016360901 -0.017867934 0.055845194
0002c0 34 00 05 3c 2d 71 70 bd 15 26 35 bd 1d c6 1a 3d
       0.008117724 -0.058701683 -0.04422577 0.03778659
0002d0 26 f4 3b 3d d8 3c e0 3c 6e 84 5a bd 76 d1 7a bd
       0.045887135 0.027372763 -0.05334895 -0.061234914
0002e0 87 ad 27 bd f0 95 e2 3c 51 ce 8f bd 0d b4 84 bd
       -0.040936973 0.027659386 -0.070217736 -0.064796545
0002f0 ca 90 ac 3d 18 75 ce bc 63 52 ae 3c ac 39 bd bc
       0.08426054 -0.025202319 0.02127952 -0.02309879
000300 4b 6a a1 bd 35 4d a9 3d 18 4b 9a 3d 5f e2 a4 bd
       -0.07881602 0.08266679 0.07533854 -0.08050989
000310 18 3b 7e 3d 33 9a 7c 3d f1 c8 93 3d 2f 91 cd bc
       0.062068075 0.061670493 0.07216061 -0.025093643
000320 f6 95 ac bd 96 3c 61 3d fa 6c 42 3d a0 c4 35 3b
       -0.0842704 0.05498942 0.04746721 0.0027735606
000330 25 a9 a6 bd f6 3d 4a bd 17 f1 b3 bd e2 f1 4c bb
       -0.081377305 -0.049375497 -0.087862186 -0.0031272103
000340 6b aa a8 3d d6 c7 48 3b 26 9a 4a bd 9d 04 1c bd
       0.0823563 0.003063669 -0.049463414 -0.038090337
000350 b5 79 2e 3d 32 6e 77 bd e8 7a 2f 3c d1 6f 8d 3d
       0.042596538 -0.060407825 0.0107104555 0.06906093
000360 14 2a ac 3c 48 ea 85 3c f5 0d 9e 3d 6d 6e dd bb
       0.021016158 0.016347066 0.07717506 -0.0067575485
000370 a6 12 a3 bd c3 b5 95 3d 15 2f 6e 3c 80 fe 7a 3a
       -0.07962541 0.07310059 0.014537592 0.00095746666
000380 ce 95 96 bc b2 ec f3 3c b4 f9 0e bd 56 47 43 3d
       -0.01838198 0.029775951 -0.034906104 0.047675453
000390 b3 8f 9d bd 26 63 90 3d 58 28 b0 3d 3e a9 a0 bd
       -0.07693424 0.07050161 0.08601445 -0.078447804
0003a0 71 6d 75 bd b7 05 b2 bd ca ab 5d 3d 7e 89 12 3d
       -0.059918825 -0.08692496 0.05411891 0.035775654
0003b0 a2 ad 03 3d fa 23 40 3d 1b 3e 75 3d 2b 1a 80 3d
       0.03214801 0.04690931 0.05987368 0.06254991
0003c0 50 fa 98 bc 96 fa 1d 3d 31 91 8d bb dd f3 8c 3d
       -0.018674046 0.038569055 -0.0043202867 0.06882451
0003d0 49 3a 7f 3d d5 d2 61 3d 30 7e 13 3d b8 36 71 3c
       0.062311444 0.055132706 0.036009014 0.014722519
0003e0 a8 92 c3 bc 1c 61 cb 3c a6 bc 75 3d db 52 a8 3d
       -0.023873642 0.024826579 0.059994362 0.082189284
0003f0 46 3a 19 3d 04 3b 6b 3d 71 63 a3 bc 30 2a bd bc
       0.03740909 0.05742933 -0.019944878 -0.023091406

encoder.2.bias f4 [64]
000000 1c 01 a2 bd 24 84 8a bd e0 fe d0 bc 71 76 c3 bc
       -0.07910368 -0.06763485 -0.025512159 -0.023860188
000010 10 37 8e 3d b5 e2 ad 3c d5 65 b1 bd bc 1b 5c 3d
       0.06944096 0.021226266 -0.08662001 0.053737387
000020 a1 f5 9c 3d 50 2c f3 bc 51 75 8a bd 49 0b 9f ba
       0.076640375 -0.029684216 -0.067606576 -0.00121341
000030 41 2a 9a 3c 4e c0 72 bd b7 68 1a bd 6d 45 4a 3d
       0.018818976 -0.059265427 -0.03769752 0.049382616
000040 3d c3 e6 bc a2 51 b9 bd 7c b4 a7 bd 4e 21 65 3d
       -0.028169269 -0.09048773 -0.081887215 0.055939965
000050 40 be 8b ba 6d 07 75 bd 60 31 f1 3c 91 f5 10 bd
       -0.0010661557 -0.059821535 0.02944249 -0.03539044
000060 9e 0c c4 3c d0 f2 80 bd d1 c7 62 bc 63 d6 10 bd
       0.023931798 -0.06296313 -0.013841585 -0.035360705
000070 53 8f 99 3d 87 43 a3 bd 20 2e 95 bc 90 41 4b 3c
       0.0749804 -0.07971864 -0.01821047 0.012405768
000080 76 03 2e 3b 84 9d a9 3d df 48 a4 3d 47 5f a0 bc
       0.0026552356 0.08281997 0.080217116 -0.019576682
000090 6b 9d a1 3d cb a4 67 3d a2 0b b3 3d 2a d5 b0 bd
       0.07891353 0.056553643 0.08742453 -0.08634408
0000a0 21 8a 80 3d 98 4d 45 bc d3 f7 ab bd 2d ca 80 3d
       0.06276346 -0.012042426 -0.08396878 0.06288562
0000b0 59 0a 8e bd ed 83 96 3d be c2 a1 bd 28 ea 2f 3c
       -0.069355674 0.073493816 -0.07898472 0.01073698
0000c0 09 01 0e bc c8 e0 6f 3c 39 39 99 bc a2 b3 ae 3d
       -0.008667239 0.014640994 -0.018704044 0.08530356
0000d0 fe 59 d4 bc 40 ec 81 3d 14 15 84 bd fb 66 08 bc
       -0.025921818 0.06343889 -0.06449333 -0.008325334
0000e0 94 68 b4 3d 4a f7 e3 3b 67 03 dd bc d2 ba 7f 3c
       0.08809009 0.0069569694 -0.026979161 0.015608506
0000f0 eb df 94 3c a8 25 4b 3d fe e9 0d 3d ce 18 9e 3c
       0.018173179 0.04959646 0.03464698 0.019298937

encoder.4.weight f4 [36, 64]
000000 46 e7 9a bd 6b 1b f7 bd 0c 32 1e 3d 84 fb e1 bc
       -0.07563643 -0.120657764 0.038621947 -0.027585752
000010 47 9f 92 3d aa f6 ef bd 0c eb 8d bd e6 cc b9 3d
       0.07159286 -0.11716969 -0.06929597 0.090722844
000020 ac f4 5e 3d bb 4d f0 3d 2e 3e 84 bd e8 76 d4 3c
       0.054432556 0.11733576 -0.06457172 0.025935605
000030 6e 54 5d 3d aa d7 51 3d e4 2e f2 3d 8f 50 94 bd
       0.054035597 0.051231064 0.1182535 -0.07241928
000040 ab a8 0e 3e d3 fa d7 bd 80 d6 07 3d 8b 95 bd 3d
       0.13931529 -0.10545888 0.033163548 0.09257039
000050 94 1e 6c 3d 5d 54 0c ba 46 07 87 3d e9 64 0f 3d
       0.05764635 -0.0005353147 0.06593184 0.035008345
000060 8e fc 5f 3d e2 f7 b4 bb 73 33 81 3d 8f 65 94 3c
       0.054684214 -0.005522714 0.06308641 0.018114833
000070 99 50 54 bd d9 8d be 3d bc 2f 01 3d 5c d4 10 3d
       -0.051834676 0.09304399 0.031539664 0.03535877
000080 f0 45 88 bd 6e 88 f6 3c 63 f6 fd 3d 13 1d 2c bd
       -0.066539645 0.030094352 0.1240051 -0.042019915
000090 0e 17 9c 3d 2d 01 c8 bd 06 21 9f bd 8e 00 85 bd
       0.07621585 -0.09765849 -0.077699706 -0.064942464
0000a0 bf 37 fd 3d 40 cc 21 bc d9 35 9a 3d b7 15 df 3d
       0.12364148 -0.009875357 0.07529802 0.10892814
0000b0 3e db ee 3d a2 d6 ee 3d 17 01 14 3a f4 1f f3 3d
       0.11662911 0.11662032 0.00056459144 0.11871329
0000c0 ba 53 b3 3c f8 0e a7 3c 97 a9 a3 bd d3 bf df bb
       0.02189051 0.02039288 -0.07991331 -0.006828287
0000d0 db df fc 3d 38 ec bd bc 70 56 8f 3c 90 5c 83 3d
       0.123473845 -0.023183927 0.017497271 0.06414139
0000e0 a2 e7 f0 3d 2f e2 93 bc 14 19 92 3d 47 f7 b7 bc
       0.117629305 -0.018052189 0.071336895 -0.022456778
0000f0 62 c9 7b bd 51 bc 0a 3e f8 60 1d 3d 1e 05 43 bc
       -0.06147135 0.135484 0.038422555 -0.0119030755
000100 7c 3f d6 bd 4a cb bf 3d 60 95 9a bb b0 88 54 bd
       -0.104613274 0.09364946 -0.004717514 -0.051888168
000110 00 e4 d2 39 2a bd a6 bd e2 dc 8d bd 5e 69 a9 bd
       0.00040224195 -0.08141549 -0.06926896 -0.0827205
000120 f4 fb 41 bd 98 78 bb 3c 20 df b3 3b a0 de bd bc
       -0.04735942 0.022884652 0.005489245 -0.023177445
000130 e8 10 98 bd 40 14 fa bb fe d8 e0 bd ba 7e b0 3d
       -0.074250996 -0.0076318085 -0.10978888 0.08617921
000140 c4 35 87 bd 6c 78 7a 3d 00 57 8c bb 74 32 ee 3d
       -0.06602052 0.06115 -0.004282832 0.11630717
000150 14 f7 f7 3d 44 8b bd 3d 00 ad 59 bc a0 8a c4 bb
       0.12107673 0.092550784 -0.013285875 -0.0059979707
000160 40 0e 70 3c 98 68 db bc 8e 36 a4 bd 64 0f 8e 3d
       0.014651835 -0.026783273 -0.08018218 0.06936529
000170 a8 c3 ca 3c 20 3e b9 3d f4 c1 36 3d b2 f7 90 3d
       0.0247515 0.090450525 0.044618562 0.07078494
000180 d0 f7 7e bc 80 4d 0a bd 86 72 b7 bd 00 36 fb bb
       -0.015562013 -0.033765316 -0.089573905 -0.0076663494
000190 5c 62 2b bd c8 09 ce bc b2 e2 c0 3d 50 3d df 3c
       -0.04184185 -0.025151148 0.09418239 0.027250916
0001a0 5a af ef bd 52 b0 cd 3d 70 b2 d5 bc 94 52 4e 3d
       -0.117033675 0.10043396 -0.026086062 0.05037172
0001b0 58 e9 1a bd a2 cf 94 bd 52 a8 d1 3d 90 5e f5 bd
       -0.03782019 -0.07266165 0.10237183 -0.11980927
0001c0 6a 2e db 3d c0 be a8 3d 64 ec 3e bd 40 06 5c 3d
       0.10702212 0.08239508 -0.04661216 0.053716898
0001d0 90 b5 e5 3c f0 16 d6 bd b4 64 00 bd 0e 2c 8d 3d
       0.028040677 -0.10453594 -0.031346038 0.068931684
0001e0 d0 a9 88 3d 08 61 5f bd 88 54 ea bc da 7c cd 3d
       0.06673014 -0.054535896 -0.02860476 0.10033579
0001f0 92 b0 e6 bd ec 46 79 bd f0 e4 fe bd 6c 58 ef bd
       -0.11264147 -0.060858652 -0.1244601 -0.11686787
000200 28 62 fc bd 6d 68 4b bd dc 58 e4 3d 08 d2 ea 3d
       -0.12323409 -0.049660135 0.11149761 0.114658415
000210 30 32 fb 3d e6 5f 22 3d c0 ac 3e 3b 2c 4d e7 3c
       0.12265432 0.039642237 0.0029094666 0.02823504
000220 0c ce f3 3d 2b cf a1 3d 60 31 75 3d c4 ca a2 bd
       0.11904535 0.07900842 0.05986154 -0.07948831
000230 df b3 9d bd 80 2b 91 3c 23 1e e1 bd ae 90 1f 3d
       -0.07700323 0.017720938 -0.10992076 0.038956337
000240 cd cc fc bd 69 c2 48 bc d8 1c fe bd f6 6f cc 3d
       -0.1234375 -0.012253382 -0.12407845 0.09982292
000250 22 70 f7 3d aa 28 7e bc 00 54 1b 3d 86 89 c6 3c
       0.120819345 -0.015512625 0.037921906 0.024235498
000260 fc 78 a1 bc 78 e8 d7 bd f0 fc 9a 3d 07 2d 9f bb
       -0.01971101 -0.10542387 0.07567775 -0.0048576626
000270 ba 70 ba 3d da 24 d2 bd cf b6 d9 bd 50 d8 f0 bc
       0.09103532 -0.10260935 -0.10630571 -0.02940002
000280 46 82 0c 3d 63 ad 9d bd 9d 79 f4 3d 26 16 bc bb
       0.034303926 -0.076990865 0.119372584 -0.005739945
000290 21 89 9e 3b de e6 ee bd 3e 70 53 3d a4 30 bd 3d
       0.0048381244 -0.11665128 0.051620714 0.09237793
0002a0 10 64 7d 3c 92 95 d3 bd 80 a8 10 3c 8b 31 ee 3d
       0.015465751 -0.10331263 0.008829236 0.11630543
0002b0 dd c4 63 3d 71 5d 9b bd be 54 f2 3d 42 07 c7 bd
       0.055607665 -0.07586182 0.118325695 -0.09718181
0002c0 25 28 41 bc 80 32 d0 3d 32 f2 6b 3d f5 22 ee bd
       -0.011789356 0.10165882 0.057604022 -0.11627761
0002d0 49 e3 1c bd 95 db cb bd 06 ff b5 bd 4b ee a0 bc
       -0.038302694 -0.09953991 -0.088865325 -0.019644877
0002e0 14 5b 1d bd 9c ad 60 3d 03 e1 6d bd 6a 82 b0 bd
       -0.038416937 0.054853067 -0.058075916 -0.086186245
0002f0 2e a9 ff bc ff b6 75 3d d5 07 e9 3d 9f 3b ea bd
       -0.0312086 0.05998897 0.11378447 -0.11437153
000300 1d fc 3e bd 28 9b f7 bc b8 48 ff 3d 2a b3 b2 3d
       -0.046627153 -0.030225351 0.12465042 0.08725579
000310 b2 72 a8 bd 04 95 30 bd 80 56 14 bd 00 fa b2 bc
       -0.082250014 -0.043110862 -0.036215305 -0.021847725
000320 ed 04 52 3d dc 23 74 bc 52 12 c2 bd a6 c4 91 bc
       0.05127423 -0.014901128 -0.094761506 -0.017793965
000330 9c bd 52 3d b6 96 51 bb 88 ec 7f 3d 6e 4f b4 bd
       0.051450357 -0.00319807 0.062481433 -0.088042125
000340 ed 4e 4a bd 2a 41 84 bd 10 5e 4c 3c d8 78 96 3d
       -0.049391676 -0.064577416 0.012473598 0.07347268
000350 20 46 9e 3c b2 c4 5b 3d 60 91 1c bd 20 78 f6 bb
       0.019320548 0.05365438 -0.038224578 -0.0075216442
000360 20 e2 be 3b db dc f9 3b cb f6 23 3d bc 2c 6a 3d
       0.005825296 0.007625205 0.040030282 0.05717157
000370 00 71 25 3d 30 54 b1 bd ad 30 a7 3d 0c 3e cd 3d
       0.04039097 -0.086586356 0.08163581 0.100216
000380 93 74 da bd b2 77 5c bd 82 0e 80 3d 03 7d c9 3d
       -0.10666766 -0.053825088 0.06252767 0.09838297
000390 ec a2 af bd 1c 96 4f bd cc 0b ed bd a0 0e f0 bb
       -0.08575997 -0.050680265 -0.11574516 -0.007325962
0003a0 4d 7d 21 3c 84 ba 71 3d 2f aa 1f bd 10 fa 7f 3d
       0.009856534 0.059015766 -0.03898066 0.062494338
0003b0 dd 8f a9 bd fe b0 e3 3d 99 de de bd 12 c2 f9 bd
       -0.08279393 0.11117743 -0.10882301 -0.12195219
0003c0 b8 65 e1 3d 0a 14 9a 3d 9d 38 a9 3d 10 55 bf bd
       0.110057294 0.075233534 0.08262751 -0.09342396
0003d0 ee f3 99 3d 8d bf 9c 3d 0c 0b 20 3d b0 89 96 3d
       0.07517229 0.07653723 0.039073035 0.073504806
0003e0 8b f1 a9 3d b2 73 b3 bd 5a 97 91 3d 57 ac 33 bd
       0.08298024 -0.087623015 0.07108946 -0.043865528
0003f0 7b 0d e9 bd cf 01 f9 3d c0 36 96 bd 1c 3b 61 bd
       -0.11379524 0.12158548 -0.073346615 -0.05498801

encoder.4.bias f4 [36]
000000 4c f5 08 3e 80 ae e7 ba d0 49 af 3d 69 be d0 bd
       0.13374823 -0.0017675906 0.085590005 -0.10192568
000010 ea 7e 26 3d 01 8c 65 3d 5a 73 f7 bc 0d a7 b6 3d
       0.04064838 0.05604172 -0.030206371 0.08918581
000020 74 2b 8e bd 63 4f 8b bd 06 23 15 3d 68 b0 f5 bc
       -0.06941882 -0.06802251 0.036410354 -0.029991344
000030 55 28 b0 3d a5 b6 1e bd 84 b5 26 3d 3b e2 73 3c
       0.08601443 -0.038748402 0.04070045 0.0148854805
000040 8e 76 9b bd 4d d8 de 3d 95 34 a5 3d 28 63 c4 3d
       -0.07590972 0.108811 0.0806667 0.09589225
000050 10 f2 5c bc 94 60 d7 bd 64 89 dd 3d 50 78 be bd
       -0.013485447 -0.10516468 0.10817221 -0.093002915
000060 6f 14 46 3d b8 1d f6 3d c0 04 cf 3c c6 fa 82 3b
       0.04835933 0.12017387 0.02527082 0.0039971797
000070 6c f6 c5 bd 12 91 fb bd 55 59 4a 3c 67 c8 be 3d
       -0.09666142 -0.12283529 0.0123504 0.093155675
000080 a2 ac d6 bd 99 f8 32 3d 15 ed be 3d 00 60 23 b9
       -0.10482146 0.043694112 0.093225636 -0.00015580654

encoder.6.weight f4 [18, 36]
000000 dc d0 08 3e a0 7b 27 bd 90 4a 63 3c f1 23 e5 bd
       0.13360924 -0.040889382 0.013872758 -0.11188496
000010 49 aa 2b be d5 a7 22 3e de 6c 0d be bf 3f b6 bd
       -0.16764177 0.15884335 -0.13811061 -0.08898877
000020 7b 7f f0 3d a0 81 ce bc f0 dc f0 bd 4e cd d1 bd
       0.11743065 -0.025208294 -0.117608905 -0.10244237
000030 a4 3d 76 3d aa ce a4 3c 2a 71 ab 3d 86 cd bb 3d
       0.06011738 0.020118076 0.08371194 0.0917006
000040 c6 08 72 bd 58 70 f3 bc 00 ec 1e 3c 3b e6 01 3e
       -0.0590904 -0.029716656 0.0096998215 0.12685482
000050 f8 cf 92 bc e0 bf e2 bb e2 5c 1c be 38 4a 86 3c
       -0.017921433 -0.006919846 -0.15269807 0.016392812
000060 05 da 27 be 46 1e de 3d 20 ab f6 3b f7 29 19 3e
       -0.16391762 0.10845618 0.007527724 0.14957415
000070 60 3c 9e bd a3 d1 c9 bd 80 f8 a2 3b 45 62 1e 3d
       -0.07726359 -0.09854438 0.004973471 0.038667936
000080 0f 93 23 be 63 80 8e bd f2 99 fd 3d b6 af fd bd
       -0.15974067 -0.069580816 0.12382878 -0.1238703
000090 4c 8f 16 3e 45 25 1a 3e 0d 1c 07 3e 51 a8 28 bb
       0.14703101 0.1505328 0.13194294 -0.002573509
0000a0 e5 1b a6 3d 78 06 e1 bd 0a 71 09 be 71 09 d4 3b
       0.08110789 -0.10987562 -0.13422027 0.006470852
0000b0 ba ed 9e bd 3d c0 17 be f6 14 f5 3c a0 9f 0a 3d
       -0.077601865 -0.14819427 0.029917222 0.033843637
0000c0 36 8f f3 bd 4f 7b 8c bd 0f be 5b bd c8 eb d6 bc
       -0.1189255 -0.06859457 -0.05364805 -0.026235476
0000d0 58 6c e3 bd ad 03 75 bc d6 92 e4 bd 9d 6b 02 be
       -0.11104649 -0.01495449 -0.11160819 -0.12736364
0000e0 ba 10 d9 3d 64 20 7f 3d fc d9 07 3d 26 47 91 bd
       0.105988935 0.06228675 0.03316687 -0.070936486
0000f0 d5 80 e5 bd 1b aa 13 be 28 2a ba 3d ee 3c f0 3d
       -0.112062134 -0.14420359 0.09090072 0.117303714
000100 ed 10 df 3d 43 db 08 be 79 09 3a 3d ec a9 5e bd
       0.108919 -0.13364892 0.04541919 -0.05436127
000110 49 10 1a 3e 1f 2a 98 3b aa 32 e7 3d 6d 51 0c 3e
       0.15045275 0.004643693 0.1128896 0.13702936
000120 4f e6 17 be 79 8f 0b 3e 1d 52 17 3e b8 23 d9 bd
       -0.1483395 0.13628949 0.14777417 -0.10602516
000130 fc f6 5a 3d bf 24 11 be 00 d5 52 3a 97 e0 15 3e
       0.0534582 -0.14174174 0.0008042604 0.14636455
000140 40 a0 aa bd 00 f9 39 3c 7e 64 cb 3d 9d 72 14 3e
       -0.083313465 0.01135087 0.09931277 0.14496846
000150 68 23 05 be fa e5 a2 3d 68 9a d1 bd 80 71 b2 ba
       -0.13001788 0.07954021 -0.10234529 -0.0013614148
000160 55 e9 22 3e b3 f0 a4 bd 94 0c 23 3d 12 82 9b 3d
       0.15909322 -0.08053722 0.039806917 0.07593168
000170 e8 c6 f6 bd 89 e2 27 3e a8 60 08 be 40 e4 5b 3d
       -0.12049657 0.1639501 -0.13318121 0.053684473
000180 70 4e 11 bc e0 4c 13 3d 1b c8 87 bd 46 d8 5f bd
       -0.008868799 0.035961986 -0.06629964 -0.054649614
000190 96 0a 65 bd 80 7c 94 3c c8 b5 f9 3c 3f d4 16 3e
       -0.0559183 0.018125772 0.030482188 0.14729403
0001a0 40 28 08 be 67 a5 1c 3e ec 6e 0d bd dc d9 30 3d
       -0.13296604 0.15297471 -0.03452961 0.043176517
0001b0 9a 66 8b 3c d0 e5 33 bd dc 5a 99 3d 43 e3 e0 3c
       0.017016698 -0.04392034 0.07488033 0.027452117
0001c0 8b b0 a9 3d 1c 45 1f bd bc ec 15 3d 72 a7 a1 3d
       0.08285626 -0.038884267 0.03660272 0.07893266
0001d0 11 4f 4a 3d 2d 51 34 3c aa ff b6 3d 8d 23 22 3e
       0.04939181 0.011005682 0.08935483 0.15833874
0001e0 cb df a7 bd 87 43 2a 3d 71 fd 17 be 2a 4c f9 3d
       -0.08196982 0.041568305 -0.14842774 0.1217273
0001f0 62 be f3 3d c8 11 89 bd 68 a2 cb bd d1 d2 15 be
       0.11901547 -0.06692845 -0.09943086 -0.14631201
000200 de be 00 be 00 ac 73 3c de bd 96 3d 9b 9f a6 bd
       -0.1257281 0.014872551 0.07360433 -0.08135911
000210 bc 30 1e 3e 6f 45 c0 bd c7 1a 0c be 54 92 35 3e
       0.15448278 -0.093882434 -0.1368209 0.17731601
000220 12 bf b6 3d c0 37 22 bb f9 db 0e bd 8c 61 33 3d
       0.089231625 -0.0024752468 -0.03487775 0.0437942
000230 19 cd 21 3e 2b 99 ee bd 0f 02 13 3e 2e fe a2 bd
       0.15800895 -0.11650308 0.14356254 -0.07958637
000240 fe f9 93 3d 58 97 9b 3d b0 c1 6f bd ac 31 1d 3d
       0.072254166 0.07597226 -0.058534324 0.03837745
000250 94 96 17 be 00 34 92 ba d8 c2 8f bd b2 c6 ca 3d
       -0.14803535 -0.0011154413 -0.07019585 0.099011794
000260 15 6b 26 3e ab 13 fa bd c6 7b fa bd 80 cd ad 3a
       0.16251786 -0.122107826 -0.12230639 0.0013260096
000270 28 8b ad 3c f0 81 b5 bd 13 9a e0 bd 00 c1 c8 bc
       0.021184519 -0.08862674 -0.10966887 -0.024506092
000280 22 85 fc 3d fd 60 24 3e 56 e3 d7 3d b8 1b fb bc
       0.123300806 0.16052623 0.10541408 -0.030652866
000290 1f fd 29 be a6 8b a6 3d 88 46 cc bc 00 32 0f 3c
       -0.16600464 0.081321046 -0.024935976 0.008739948
0002a0 e0 ae 84 bd 2e 19 b5 3d c2 c7 cd 3d 77 5e 25 be
       -0.06478667 0.08842693 0.100478664 -0.16149317
0002b0 64 03 0d bd cf 44 04 be 40 2a 54 bd e8 04 08 be
       -0.03442706 -0.12916873 -0.051798105 -0.13283122
0002c0 7e 9f d9 3d 56 4e b0 bd 86 91 86 bd 0e f2 fd 3d
       0.10626124 -0.086086914 -0.06570725 0.12399684
0002d0 80 4e ce bb 0a db f7 3d 60 62 a4 bc aa 8e bd 3d
       -0.006295979 0.12102325 -0.02006644 0.09255727
0002e0 00 88 f3 3a 48 64 8a bc a4 a9 6c 3d 2b 2c cd bd
       0.001857996 -0.016893521 0.05777897 -0.1001819
0002f0 ba 95 c1 3d c3 5f 04 be 30 e4 79 bd 10 93 56 bd
       0.09452386 -0.12927155 -0.061008632 -0.052386343
000300 a1 6b 22 3e dc 65 19 be d6 2a 82 bd 00 dd 9f 3c
       0.1586137 -0.14980263 -0.063558266 0.01951456
000310 e6 94 cb 3d 5d 4c 25 3e e2 b6 05 be 38 af 81 3c
       0.099405095 0.16142412 -0.13058046 0.015830621
000320 a2 19 24 be 16 27 34 bd 56 47 9f bd 70 2a 67 bc
       -0.16025403 -0.043982588 -0.07777278 -0.014109239
000330 b0 f5 0b be 0b aa cb bd c8 b9 16 be 35 7f 0c 3e
       -0.13667941 -0.099445425 -0.14719307 0.137204
000340 3e af 0f be e2 78 d9 3d 20 a4 f5 3c 00 80 71 3b
       -0.14031693 0.1061876 0.029985487 0.0036849976
000350 e8 39 b0 bc 86 e0 ef 3d f8 97 e9 3c 06 5a ba bd
       -0.021511987 0.11712746 0.028514847 -0.09099202
000360 f2 76 0f 3d 7b 96 f0 bd 24 43 69 3d a7 e9 4a bd
       0.035025544 -0.11747452 0.056948796 -0.049539234
000370 8f 98 54 35 b9 4a 21 be f1 2d 1a 3d e5 b9 fc 3c
       7.9198156e-07 -0.1575116 0.03764147 0.03085036
000380 7a 3a 7e 3d 2c 01 25 be 78 ec ea bc d4 65 68 3d
       0.062067486 -0.16113728 -0.02867721 0.056737736
000390 a5 e7 6c 3d 57 bf 17 be 7b 51 76 3d 26 b7 2b be
       0.0578381 -0.14819084 0.0601363 -0.16769084
0003a0 54 15 51 3d 72 24 01 be 17 79 04 bd ab f4 0c be
       0.05104573 -0.12611559 -0.032342043 -0.13765208
0003b0 b8 a6 01 be 3b 16 ca bd aa ef a9 bd ae 98 d1 3d
       -0.12661254 -0.098675214 -0.082976654 0.102341995
0003c0 96 c9 d5 bd 6e 5e e7 3b 18 8f 8f bd 52 2a ba 3d
       -0.1043884 0.0070608174 -0.07009715 0.09090103
0003d0 90 f9 1f 3e 2c 6a 74 3d 48 2f 56 3d 0d 10 d9 3d
       0.15622544 0.059671566 0.052291185 0.105987646
0003e0 d6 4b f1 3d c0 dd 04 3e c9 38 24 3e 2b 08 eb bd
       0.11782043 0.12975216 0.16037287 -0.11476167
0003f0 c8 fc 94 3c c2 96 db 3d ba ee 00 be 10 3b 4a bd
       0.018186942 0.10722114 -0.12591067 -0.049372733

encoder.6.bias f4 [18]
000000 66 65 26 be 84 5a 90 3d a0 2c d6 bd 82 2b 19 bd
       -0.16249618 0.070485145 -0.1045773 -0.037395008
000010 28 ff 22 be cc fa 24 bd cd 67 25 3e 52 27 0e be
       -0.15917647 -0.04027824 0.16152878 -0.13882187
000020 de c2 cf bd 20 fb c8 bc 5a c6 af bd e9 6a 09 be
       -0.1014459 -0.024533808 -0.085827544 -0.13419689
000030 16 74 b9 bc 57 cb f5 bd 96 29 c0 3d cf ca e0 3d
       -0.022638362 -0.120016746 0.09382932 0.10976183
000040 bb c6 03 bc 41 e4 6f 3d
       -0.0080429865 0.05856729

encoder.8.weight f4 [10, 18]
000000 1c 61 53 3e 5f 3b 30 3e ae 25 8f 3d 0e ea 07 3e
       0.20642513 0.17210148 0.06989609 0.13272879
000010 e3 19 0e 3e b8 70 fc 3c 0d 95 e1 3d 70 f4 7f bd
       0.13877062 0.030815467 0.11014757 -0.062488973
000020 1f 34 ab 3d 88 fb 43 bd d2 fa c8 3d d5 19 22 be
       0.08359551 -0.0478473 0.09813465 -0.15830167
000030 72 ef 57 3e d0 7d 62 be 06 d1 27 3e 28 98 12 be
       0.21087435 -0.22118306 0.1638833 -0.14315856
000040 09 24 09 be b1 8d 29 3d 37 b6 42 3e ec 7b aa 3c
       -0.13392653 0.041394893 0.19014822 0.020811044
000050 49 38 63 be c1 14 85 bd 72 c0 b9 bd cd 7a 1e 3e
       -0.2218944 -0.06498099 -0.09069909 0.15476532
000060 55 4e db 3d fd 17 67 3e fe a3 40 be 41 ec 3c be
       0.107083 0.22567745 -0.18812558 -0.18449499
000070 f3 5e 27 bc 49 38 4c 3e 07 40 2b bd 6a b2 32 3e
       -0.010215509 0.19943346 -0.041809108 0.17450872
000080 9a 0b 22 3b 53 0d 92 bd 91 19 5a bd 2c c0 12 be
       0.0024726153 -0.07131448 -0.05324704 -0.1433112
000090 b5 ac f3 3c 3b 31 14 3e 8c f6 c9 bd b7 e7 91 3c
       0.029745439 0.14471905 -0.09861478 0.017810686
0000a0 e4 2b 25 be bf fe 29 3e 5b 05 d5 bc dc dc d3 bd
       -0.16130024 0.16601084 -0.02600353 -0.1034486
0000b0 aa e5 49 3e de c4 fd 3d 5e 89 19 be 06 69 b1 3d
       0.19716516 0.12391065 -0.14993808 0.0866261
0000c0 4b 25 6b be 45 cc 49 3d ce c9 88 3d e6 a1 30 3d
       -0.22963445 0.049267072 0.06679116 0.04312315
0000d0 77 c8 2d 3e 6f 1f c2 bc df b1 54 be 76 7e 3d be
       0.16971003 -0.02369663 -0.20770977 -0.18505272
0000e0 74 60 46 3d b9 91 3b 3d d8 88 96 3c 90 1b f4 bd
       0.04843183 0.04579327 0.018375799 -0.1191932
0000f0 4a 70 13 bd b2 1e da 3d 46 33 56 bd 7b e4 6f be
       -0.03599576 0.10650386 -0.052294992 -0.23427002
000100 c3 c6 a4 3d c0 25 b3 bb 06 10 62 be bc 4e 1e 3e
       0.08045723 -0.0054671466 -0.22076425 0.15459722
000110 7c 0a e7 3d 8c cb 62 bd e2 ca 47 be a7 94 80 bd
       0.112812966 -0.0553699 -0.19510987 -0.06278353
000120 8a b9 8b bd 4d fe c3 bd 91 c4 ef bd 9f 16 68 be
       -0.06822498 -0.095699884 -0.11707414 -0.2266488
000130 3a 78 10 be e0 64 1a be 20 84 5f 3e 16 80 0e be
       -0.14108363 -0.15077543 0.21827745 -0.13916048
000140 3e af 09 be d0 d1 55 be ef 91 42 3e 7c 91 38 3e
       -0.13445756 -0.20880818 0.19000982 0.18024248
000150 e3 0a 00 3e 7a f5 74 bd 44 5b 21 be e4 e4 30 bd
       0.12504153 -0.059804417 -0.15757471 -0.043187037
000160 38 a5 07 3d 8e 41 f6 3d 4e be 52 be 60 e9 99 3d
       0.03311655 0.12024222 -0.20580408 0.07515216
000170 82 5e df 3d dc 53 34 be bc f0 70 3d 06 ef 86 3d
       0.10906698 -0.17610115 0.058823332 0.06588559
000180 50 ba 30 3e 3a 7d 36 be 43 4e 71 be 14 b7 36 3d
       0.17258573 -0.17821208 -0.2356501 0.04460819
000190 3e b7 ef bd 32 68 a1 bd ab fe 51 bc e8 aa 49 3e
       -0.117048725 -0.07881202 -0.012817065 0.19694102
0001a0 d8 f9 31 bd 14 0d 4a 3e c6 b8 a1 3c b5 37 37 be
       -0.04345116 0.19731551 0.019741427 -0.17892344
0001b0 64 c0 4a 3e 1c 96 e7 3d c0 48 6d bd 5c 9d 18 3d
       0.19799954 0.11307928 -0.057930708 0.037259445
0001c0 42 2f 3b be e9 06 70 be 69 fb 45 be 17 07 1e 3e
       -0.18279746 -0.23440136 -0.19334187 0.15432392
0001d0 6f 82 9a bd 99 8b 63 be fd b4 88 3d d7 6c 36 be
       -0.075444095 -0.22221221 0.06675146 -0.17814957
0001e0 b7 59 5b be e1 6d 44 be a5 c8 cd bd 1e 05 e5 3d
       -0.21420942 -0.1918254 -0.100480355 0.11182617
0001f0 da aa a1 bd 69 e3 fd bd eb fb b1 3d 11 fc dc 3d
       -0.078939155 -0.12396891 0.08690628 0.10790265
000200 c2 16 1e be 75 b1 92 bc d7 11 41 3e b8 4e 2e be
       -0.15438369 -0.017906884 0.18854462 -0.17022216
000210 79 3b 10 be b3 d6 3c 3e b9 c7 17 3e e5 df 19 3e
       -0.14085187 0.18441276 0.14822282 0.15026815
000220 6d 7b dd bd 2b 1b db 3d ce aa b3 bd 51 37 1c 3e
       -0.10814557 0.10698541 -0.08772813 0.15255477
000230 d0 c8 d7 3d f4 d9 15 be a1 cc 26 3e 42 63 fb 3d
       0.10536349 -0.14633924 0.16288997 0.12274791
000240 09 0e cf 3d 09 9b 30 3d d5 70 2e 3e ca b2 c2 bb
       0.10110099 0.043116603 0.1703523 -0.0059417235
000250 d2 22 b5 3d 8b 60 65 be c1 5c 23 3d 84 7b 5c 3d
       0.08844532 -0.2240011 0.03988338 0.05382873
000260 d3 7b 29 be 26 8c fe bd c6 b8 dc 3d 94 bd 2b be
       -0.16551141 -0.12429075 0.1077743 -0.16771537
000270 36 a5 cb bd 5c b9 66 be 10 f2 11 3e 73 0d 13 3e
       -0.09943621 -0.22531646 0.14252496 0.14360599
000280 67 e5 6b 3d ba 29 5a be 5a a1 16 be 19 35 e5 3d
       0.057591822 -0.2130498 -0.14709988 0.11191768
000290 60 97 16 be e3 a8 a7 bc ec ea 0a be 6b 7b 61 be
       -0.14706182 -0.020466274 -0.13566178 -0.22019736
0002a0 03 62 83 3e bc b7 08 3d 94 56 d0 3c 7d 69 52 be
       0.25660715 0.033378348 0.025431909 -0.20548053
0002b0 c0 b8 0a 3e 22 8f 78 be cd f2 8f 3d 1e 89 1e be
       0.13547039 -0.24273351 0.070287324 -0.15481994
0002c0 73 14 57 be 80 07 df 3c 59 ba 03 3e 2e 4b 33 3e
       -0.21003895 0.027225256 0.12864055 0.17509148

encoder.8.bias f4 [10]
000000 93 25 dc bd 01 4d 8d 3d 71 9f 4f bd 96 31 78 3d
       -0.10749354 0.06899453 -0.050689165 0.060594164
000010 7a f5 a4 3b 1b f1 d1 bc 66 fb 66 bd c4 76 da 3d
       0.005034146 -0.025627663 -0.056392096 0.10667184
000020 b7 3e db bd b7 0f 3f be
       -0.10705321 -0.18658338

decoder.0.weight f4 [18, 10]
000000 98 63 57 bd d8 0c 60 bd e2 10 db bd 9f f6 9d 3e
       -0.052585214 -0.05469975 -0.106965795 0.3085222
000010 92 1e 6d 3e 38 f5 85 bd 24 d4 a8 3d 00 20 dd bc
       0.23156193 -0.065409124 0.082435876 -0.026992798
000020 94 5a 89 3d 00 f7 63 bb a1 f1 d6 3d e6 39 fc 3d
       0.067067295 -0.0034784675 0.10495306 0.12315731
000030 4f ee 75 be 63 68 17 be aa b0 e4 3c 5c 81 87 3e
       -0.24016689 -0.14785914 0.027916271 0.2646588
000040 0a bc 92 be a6 f2 6b be 38 2a 78 3d f4 ff 0d 3e
       -0.28659087 -0.23041782 0.060587138 0.1386717
000050 37 dd 8a 3e b2 98 81 3e 26 8e db 3d 34 61 d9 3d
       0.271219 0.2531181 0.10720472 0.10614243
000060 c0 33 83 be 35 42 1a be 18 11 95 be bb 92 2e 3d
       -0.2562542 -0.15064318 -0.29114604 0.0426204
000070 04 de 8c bd e2 34 8c 3e 54 28 8b be 01 d0 9a 3e
       -0.068782836 0.27384096 -0.27179205 0.3023682
000080 1f b3 63 3d c7 36 f4 bd af 52 92 be e8 0d 8a 3b
       0.055590745 -0.119245104 -0.28578708 0.0042130835
000090 4e ed 23 3e a5 cd 74 3e d5 b1 75 be b6 0e 55 be
       0.16008493 0.23906572 -0.23993619 -0.20806393
0000a0 fa d1 11 3e 42 4c 3e 3e 29 0b 9f be e3 7e a0 be
       0.14240256 0.18583778 -0.31063202 -0.31346807
0000b0 8e 21 25 3e 70 38 6e 3d e8 3a 21 3e 20 94 c9 bd
       0.16126081 0.05815929 0.15745127 -0.09842706
0000c0 3f c6 9c 3e 25 a2 9a 3e 49 b0 a1 3d 0d c3 a1 3d
       0.3062 0.3020183 0.07894952 0.07898531
0000d0 08 c0 51 3e 38 9c 8b 3e d2 96 7d be 6d be a2 bd
       0.2048341 0.27267623 -0.24764565 -0.07946477
0000e0 70 1d 68 be 8b c0 f1 3c a1 02 1f be 81 c2 2a 3e
       -0.2266748 0.029510757 -0.15528347 0.1667576
0000f0 65 5e 0d 3e 38 f2 f8 bc 67 80 7f be 55 35 b0 bd
       0.1380554 -0.030388936 -0.24951325 -0.08603922
000100 3a dd 38 be d3 6d 97 be ce 6c ca bc f7 23 9c be
       -0.18053141 -0.29575977 -0.024710085 -0.3049619
000110 9c 4e 51 be ab e6 f5 3d 43 cb 08 be c3 76 91 3e
       -0.20440143 0.12006887 -0.13358788 0.2841092
000120 20 a0 6f 3d 58 62 d7 bd 9a 36 7c 3e f0 28 3a be
       0.058502316 -0.105168045 0.24630204 -0.18179679
000130 cd ab 8e 3e 98 c7 3e 3d 00 23 5d bd 1d e2 90 3e
       0.2786545 0.046577066 -0.053988457 0.2829751
000140 88 b5 39 3d 9e 83 cf bd 7e 7d 4b be 2c f1 d0 bd
       0.045339137 -0.10132526 -0.1987209 -0.1020225
000150 c9 92 88 be 40 5b 86 bb 15 f7 3e be ce 17 36 3e
       -0.26674488 -0.0041002333 -0.18648942 0.17782518
000160 75 33 60 be 00 6e 57 3d 97 c1 76 be 37 34 0f be
       -0.2189463 0.05259514 -0.24097286 -0.13984762
000170 4b 72 95 be c2 39 79 3e 83 8e 11 be 0c c5 f2 3d
       -0.2918876 0.24338439 -0.1421452 0.1185399
000180 9e 8a e0 bd 88 a6 62 bd 20 f6 c5 bd a4 24 ae 3d
       -0.10963939 -0.055334598 -0.09666085 0.085030824
000190 16 40 64 3e a8 d7 ff 3d f0 7b 56 bd 7a 1f 01 be
       0.22290072 0.12492305 -0.05236429 -0.12609664
0001a0 62 b5 32 be 14 65 c1 3d ff 31 36 be 37 61 2a be
       -0.17452005 0.09443107 -0.1779251 -0.16638647
0001b0 cf 46 9c 3e 7e 70 10 be 40 7f 2d 3d c7 36 93 3e
       0.30522773 -0.14105412 0.042357683 0.2875273
0001c0 e4 03 b4 bd 6f b0 91 3e 40 a3 e7 bd 89 f0 80 be
       -0.087898046 0.2845492 -0.11310434 -0.25183514
0001d0 00 cd ae 3d d0 69 f6 bc 68 f7 e8 3d 5a be 6b 3e
       0.085351944 -0.030079752 0.11375314 0.23021832
0001e0 ff eb 9e be e0 f4 7c 3d 0d b1 a0 3e 7e d6 74 3e
       -0.31039426 0.06175697 0.3138508 0.23909947
0001f0 70 71 f0 3d 9e f1 8b be 40 af 50 be 32 e2 0d 3e
       0.117403865 -0.27332777 -0.20379353 0.13855818
000200 00 de 61 3a 1e ef b9 bd 22 3c 5d 3e 02 df 2c 3e
       0.00086161494 -0.09078811 0.2160497 0.16881946
000210 48 da 0e 3e 00 7c 90 3d 41 e6 04 be 90 cf b7 3d
       0.13950455 0.07054901 -0.1297846 0.08975136
000220 d8 7e 94 3d 41 25 9e be c1 ec 8e 3e 4f f2 93 3e
       0.07250756 -0.30887797 0.27915004 0.28895804
000230 dd 6e 52 be 22 68 bb bb e3 e4 aa be c0 2d 88 3e
       -0.20550103 -0.0057192007 -0.33377752 0.26597404
000240 86 06 e7 bd df b6 17 3e d3 91 ad be 81 20 4a be
       -0.11280541 0.14815854 -0.33900318 -0.19738962
000250 59 89 7e be 40 3a af bb 8a 59 0c be 21 99 41 3d
       -0.24857081 -0.00534752 -0.13706031 0.047265176
000260 1b 61 23 be 73 e9 55 be 61 af 9c be ce 69 1d be
       -0.15955012 -0.20889835 -0.30602553 -0.15372393
000270 87 c4 2f 3e d6 14 90 be b5 42 88 bd cd 77 e9 3d
       0.17164813 -0.28140897 -0.06653348 0.11399803
000280 dd 75 94 3e 34 ca f1 bd 84 d7 2f 3e 96 f6 65 3e
       0.28996173 -0.11806145 0.17172056 0.22457346
000290 42 d8 b4 bd 54 41 8e 3d f8 8b 48 3d d0 4c 4e 3d
       -0.088303104 0.06946054 0.04896161 0.050366223
0002a0 0a e2 c4 bd 0e d7 a1 bd 54 93 74 be 1c 02 65 be
       -0.09613426 -0.079023466 -0.23884326 -0.22364086
0002b0 42 9d 61 3e 96 1e 65 be 62 46 5e 3e ba cd c8 bd
       0.22032645 -0.22374949 0.21706536 -0.09804864
0002c0 6c 0c 2c be fa 3b 5b 3e 18 20 1c 3d 7c 08 bb 3d
       -0.16801614 0.21409598 0.038116544 0.09132478

decoder.0.bias f4 [18]
000000 a2 36 7f be 51 e6 07 3e 86 66 aa 3e 8a 46 50 bd
       -0.24923185 0.13271452 0.33281344 -0.05084852
000010 62 76 54 be bb f9 cd 3d d2 0a eb 3d 88 f2 51 bd
       -0.20748284 0.10057398 0.11476673 -0.051256686
000020 12 bd 77 be 4a 61 86 be a5 ee 96 be 34 d6 04 be
       -0.24193218 -0.262461 -0.29478946 -0.12972337
000030 4e 97 4c be 51 97 9f be 65 cd c3 3d b1 af ff 3d
       -0.19979593 -0.31170133 0.0956066 0.12484682
000040 c6 a1 c8 bd 8a 08 8a bd
       -0.09796481 -0.0673991
